b'#loc = loc("C:\\\\projects\\\\Triton-XDNA\\\\examples\\\\matmul_i8\\\\matmul_i8.py":19:0)\r\n#loc16 = loc("A"(#loc))\r\n#loc17 = loc("B"(#loc))\r\n#loc18 = loc("C"(#loc))\r\nmodule {\r\n  func.func @bare_matmul(%arg0: memref<*xi8> {tt.divisibility = 16 : i32} loc("A"(#loc)), %arg1: memref<*xi8> {tt.divisibility = 16 : i32} loc("B"(#loc)), %arg2: memref<*xi32> {tt.divisibility = 16 : i32} loc("C"(#loc)), %arg3: i32 loc("C:\\\\projects\\\\Triton-XDNA\\\\examples\\\\matmul_i8\\\\matmul_i8.py":19:0), %arg4: i32 loc("C:\\\\projects\\\\Triton-XDNA\\\\examples\\\\matmul_i8\\\\matmul_i8.py":19:0), %arg5: i32 loc("C:\\\\projects\\\\Triton-XDNA\\\\examples\\\\matmul_i8\\\\matmul_i8.py":19:0), %arg6: i32 loc("C:\\\\projects\\\\Triton-XDNA\\\\examples\\\\matmul_i8\\\\matmul_i8.py":19:0), %arg7: i32 loc("C:\\\\projects\\\\Triton-XDNA\\\\examples\\\\matmul_i8\\\\matmul_i8.py":19:0), %arg8: i32 loc("C:\\\\projects\\\\Triton-XDNA\\\\examples\\\\matmul_i8\\\\matmul_i8.py":19:0)) {\r\n    %c0_i32 = arith.constant 0 : i32 loc(#loc1)\r\n    %c4096 = arith.constant 4096 : index loc(#loc19)\r\n    %c256 = arith.constant 256 : index loc(#loc20)\r\n    %c256_i32 = arith.constant 256 : i32 loc(#loc1)\r\n    %0 = arith.muli %arg6, %c256_i32 : i32 loc(#loc21)\r\n    %1 = arith.index_cast %0 : i32 to index loc(#loc5)\r\n    %2 = arith.muli %arg7, %c256_i32 : i32 loc(#loc22)\r\n    %3 = arith.index_cast %2 : i32 to index loc(#loc7)\r\n    %4 = arith.muli %1, %c4096 : index loc(#loc23)\r\n    %reinterpret_cast = memref.reinterpret_cast %arg0 to offset: [%4], sizes: [256, 4096], strides: [4096, 1] : memref<*xi8> to memref<256x4096xi8, strided<[4096, 1], offset: ?>> loc(#loc24)\r\n    %alloc = memref.alloc() : memref<256x4096xi8> loc(#loc25)\r\n    memref.copy %reinterpret_cast, %alloc : memref<256x4096xi8, strided<[4096, 1], offset: ?>> to memref<256x4096xi8> loc(#loc25)\r\n    %5 = bufferization.to_tensor %alloc restrict writable : memref<256x4096xi8> to tensor<256x4096xi8> loc(#loc25)\r\n    %reinterpret_cast_0 = memref.reinterpret_cast %arg1 to offset: [%3], sizes: [4096, 256], strides: [256, 1] : memref<*xi8> to memref<4096x256xi8, strided<[256, 1], offset: ?>> loc(#loc26)\r\n    %alloc_1 = memref.alloc() : memref<4096x256xi8> loc(#loc27)\r\n    memref.copy %reinterpret_cast_0, %alloc_1 : memref<4096x256xi8, strided<[256, 1], offset: ?>> to memref<4096x256xi8> loc(#loc27)\r\n    %6 = bufferization.to_tensor %alloc_1 restrict writable : memref<4096x256xi8> to tensor<4096x256xi8> loc(#loc27)\r\n    %7 = tensor.empty() : tensor<256x256xi32> loc(#loc28)\r\n    %8 = linalg.fill ins(%c0_i32 : i32) outs(%7 : tensor<256x256xi32>) -> tensor<256x256xi32> loc(#loc28)\r\n    %9 = linalg.matmul ins(%5, %6 : tensor<256x4096xi8>, tensor<4096x256xi8>) outs(%8 : tensor<256x256xi32>) -> tensor<256x256xi32> loc(#loc28)\r\n    %10 = arith.muli %1, %c256 : index loc(#loc14)\r\n    %11 = arith.addi %10, %3 : index loc(#loc7)\r\n    %reinterpret_cast_2 = memref.reinterpret_cast %arg2 to offset: [%11], sizes: [256, 256], strides: [256, 1] : memref<*xi32> to memref<256x256xi32, strided<[256, 1], offset: ?>> loc(#loc7)\r\n    bufferization.materialize_in_destination %9 in writable %reinterpret_cast_2 : (tensor<256x256xi32>, memref<256x256xi32, strided<[256, 1], offset: ?>>) -> () loc(#loc15)\r\n    return loc(#loc)\r\n  } loc(#loc)\r\n} loc(#loc)\r\n#loc1 = loc(unknown)\r\n#loc2 = loc("C:\\\\projects\\\\Triton-XDNA\\\\examples\\\\matmul_i8\\\\matmul_i8.py":43:26)\r\n#loc3 = loc("C:\\\\projects\\\\Triton-XDNA\\\\examples\\\\matmul_i8\\\\matmul_i8.py":44:26)\r\n#loc4 = loc("C:\\\\projects\\\\Triton-XDNA\\\\examples\\\\matmul_i8\\\\matmul_i8.py":39:21)\r\n#loc5 = loc("C:\\\\projects\\\\Triton-XDNA\\\\examples\\\\matmul_i8\\\\matmul_i8.py":48:17)\r\n#loc6 = loc("C:\\\\projects\\\\Triton-XDNA\\\\examples\\\\matmul_i8\\\\matmul_i8.py":40:21)\r\n#loc7 = loc("C:\\\\projects\\\\Triton-XDNA\\\\examples\\\\matmul_i8\\\\matmul_i8.py":48:47)\r\n#loc8 = loc("C:\\\\projects\\\\Triton-XDNA\\\\examples\\\\matmul_i8\\\\matmul_i8.py":43:44)\r\n#loc9 = loc("C:\\\\projects\\\\Triton-XDNA\\\\examples\\\\matmul_i8\\\\matmul_i8.py":43:56)\r\n#loc10 = loc("C:\\\\projects\\\\Triton-XDNA\\\\examples\\\\matmul_i8\\\\matmul_i8.py":43:22)\r\n#loc11 = loc("C:\\\\projects\\\\Triton-XDNA\\\\examples\\\\matmul_i8\\\\matmul_i8.py":44:56)\r\n#loc12 = loc("C:\\\\projects\\\\Triton-XDNA\\\\examples\\\\matmul_i8\\\\matmul_i8.py":44:22)\r\n#loc13 = loc("C:\\\\projects\\\\Triton-XDNA\\\\examples\\\\matmul_i8\\\\matmul_i8.py":46:30)\r\n#loc14 = loc("C:\\\\projects\\\\Triton-XDNA\\\\examples\\\\matmul_i8\\\\matmul_i8.py":48:35)\r\n#loc15 = loc("C:\\\\projects\\\\Triton-XDNA\\\\examples\\\\matmul_i8\\\\matmul_i8.py":48:76)\r\n#loc19 = loc("a_block"(#loc2))\r\n#loc20 = loc("b_block"(#loc3))\r\n#loc21 = loc("offs_m"(#loc4))\r\n#loc22 = loc("offs_n"(#loc6))\r\n#loc23 = loc("a_block"(#loc8))\r\n#loc24 = loc("a_block"(#loc9))\r\n#loc25 = loc("a_block"(#loc10))\r\n#loc26 = loc("b_block"(#loc11))\r\n#loc27 = loc("b_block"(#loc12))\r\n#loc28 = loc("c_block"(#loc13))\r\n\r\n'